src/data/model.pth (torch, 10527 bytes, 3 tensors)

weight f4 [32, 64]
00000000: f70b 87bd f8bc 81bc d6cc ad3b 7b51 86bd
00000010: 3049 c6bc 27f5 86be 9704 03be 8f58 6bbe
00000020: c892 ae3d 06a4 2ebe 9239 9dbd 0a1e 8fbe
00000030: a091 4cbc dfbe 84bd d541 f6bd 6ea6 4fbd
00000040: 5e73 e4bb 577d 27be 5118 4abe 7094 13be
00000050: b425 803d d9f6 95bd 4cad b1bd 2167 4cbe
00000060: 6551 67bd 1f53 dfbd 1e22 74bc 4168 45bd
00000070: 8682 3c3c dd4f 00be be65 b3bd a833 a5bc
00000080: 47b9 d23d c9bd 8dbc 94d2 c53d e51d 31be
00000090: 2049 6fbd 6124 28bd 63e3 46bd cdb9 c6bd
000000a0: d1af acbb be6d 5bbe 632a f53d 961a 61bb
000000b0: f18a c03d 02ff 47be 4b2e 23be a48b 40bc
000000c0: 0ee3 1fbe 0775 11bc 52e0 18be b56a 9bbd
000000d0: 142c 17bc 8a37 83be aa4e 1abe 5b27 69be
000000e0: 27cf 603c 3b5b 76be 59e1 e33d d288 b8bd
000000f0: e081 16be dc2e 1bbe 9992 5cbe a040 80be
00000100: 7378 5abe 84d9 00bc 9618 83bd 888e 6b3c
00000110: 24c4 94bd e836 ba3e 8c88 15bd 485f f53e
00000120: 75e6 8ebc f238 8a3e 6aba c73d 82e1 19be
00000130: f255 17be 2d3c 29be 2804 463e 7563 c33d
00000140: 0cad 8ebd 0fb7 4cbc b2d7 903e da90 c53d
00000150: ee87 9b3e 86f2 bcbb 21ef 4a3e a5c0 643e
00000160: 0228 8e3e 5890 b03d f38d 9dbe 3e95 d43d
00000170: cce7 973e 5b41 423e 3aa2 c43e 8d42 813e
00000180: 23cd 8b3d 18c1 d7bc c8f6 0f3d 985f 6d3e
00000190: 7d00 7ebe d30a 423e d1e9 8dbc 049a b8bc
000001a0: b6ca 1dbe 6137 0d3e cf49 8cbe aa07 0ebe
000001b0: 4065 82be 9f9c f03d 6f7e 8abd 1851 11bd
000001c0: d4af 623d 36ef e03d 124c 6c3e 0736 2dbe
000001d0: 281c 2e3d c1fb c2bd 098e 4b3e d233 29bd
000001e0: e34b 30be 76f6 31bb d28b 3b3e 9347 8dbe
000001f0: 301d a43e 9a0a b73d f155 833e 1089 933e
00000200: 79ca 6b3d 92c5 bcbd 9bcb 40bd 2b06 99bd
00000210: 0ada 26be 4ff0 a6bd 0abc e7bd f5bd b0be
00000220: a97b 95bd 4a81 7cbe 584b 7fbc 64aa c0bd
00000230: a3d2 debd ae29 48bd e8e4 84bd d31f 85bd
00000240: 2d61 8abd 94ce 1fbe 568c 94be 865f 6dbe
00000250: 0787 6c3d 28a9 e4bd 7874 70bd 6e46 0bbe
00000260: b283 6c3d 3eba 1fbe bdb4 e03c 99a0 0abe
00000270: 1d75 653c 7af7 cbbd 54b7 14bd 0dd5 c6bd
00000280: c7da b1bd 57f3 86bd 8769 b33d b151 29bd
00000290: 5729 42bd b9e3 ddbd 694a 1cbe 485e 33be
000002a0: 6f88 d43d 2ba6 a1be 6789 ba3d ecc2 bcbd
000002b0: bb0a 83bc 1ee3 2fbe 19f7 0bbd 3950 5ebe
000002c0: b8ab 71bd c91c f6bd e48d 35be 226c 21bd
000002d0: 56e9 06bd 7afd 31be 512a d7bd 2067 24be
000002e0: 9932 aa3c bf75 50be b61c 903d 855b 9ebd
000002f0: 3313 b4bc 1cc4 06be 655b 86be fa31 6ebe
00000300: e516 97bc 7c73 09be c6d8 eabd dcb0 2dbc
00000310: 530a 99bd 0307 3ebe c925 573c 75f3 13be
00000320: 9393 d2bc 217f 37be 492d 8a3d bf22 62be
00000330: 5d2f 13bc 31b4 14be 867c dfbd dee1 e9bd
00000340: fa56 23bd b780 32be 955b 66be eb57 d4bd
00000350: a8b4 333d 623a f7bd 269d 02be 9ba2 2bbe
00000360: 1507 833d d8c3 1fbe c2a2 193e 4dc2 4dbe
00000370: d6ba 713d ca87 6bbe 2871 ebbc b10c ddbd
00000380: cdaf 283d 9fc5 44be 1120 3cbc f689 41be
00000390: 8456 a13d 31c4 38be ef9e b9bd e663 71be
000003a0: 84ae 273d 7365 8bbe 22ed 173e d257 38bd
000003b0: cee6 0bbd 5494 b3bd 33c2 49be 68c9 2bbe
000003c0: bd59 f9bd b2a0 d1bd 6a9b f5bd c1eb e23c
000003d0: cb37 163d d9b0 05be 09db 12be 1431 2abe
000003e0: 07d3 963d 63d1 6bbe e240 e83d fbad 07bd
000003f0: c2f8 3cbe 5f8d c3bd 9f67 40be 8397 91bd
-0.06594079 -0.015837178 0.0053039594 -0.0655851 -0.02420482 -0.2635891 -0.1279472 -0.22983001
0.0852409 -0.17054757 -0.07676996 -0.27952605 -0.012485892 -0.06481718 -0.12024275 -0.05069583
-0.0069717607 -0.16356407 -0.19735838 -0.14412093 0.06257191 -0.07322473 -0.08675632 -0.19961216
-0.05647411 -0.10904526 -0.014900712 -0.048195127 0.011505729 -0.12530465 -0.0875964 -0.020166233
0.10289245 -0.01730241 0.09659305 -0.1729656 -0.058419347 -0.04105032 -0.048556697 -0.097034074
-0.0052699824 -0.21428582 0.11970975 -0.0034348122 0.09401501 -0.19530872 -0.15935628 -0.011752043
-0.15613958 -0.008877999 -0.14929321 -0.07588712 -0.009226818 -0.2562831 -0.1506907 -0.22768919
0.013721264 -0.24058239 0.11126966 -0.090104714 -0.14697981 -0.15154594 -0.21540298 -0.25049305
-0.2133501 -0.00786436 -0.06401174 0.014377244 -0.07263973 0.36370015 -0.036507174 0.47924256
-0.017443875 0.2699657 0.097523525 -0.1502743 -0.1477888 -0.16526861 0.19337523 0.09540454
-0.069666 -0.012494816 0.28289562 0.09646769 0.30377144 -0.0057662157 0.19817783 0.22339113
0.277649 0.086212814 -0.3077236 0.10380028 0.29669034 0.18970244 0.3840502 0.25246087
0.06826236 -0.026337191 0.03514746 0.23180997 -0.24804874 0.18949442 -0.017323406 -0.022534378
-0.1540936 0.13790657 -0.2740006 -0.13870111 -0.25467873 0.11748623 -0.067623965 -0.035477728
0.055343464 0.10983126 0.23075894 -0.16915141 0.04250732 -0.095206745 0.19878401 -0.041309185
-0.17216448 -0.0027154959 0.18315056 -0.2759367 0.32053518 0.08937569 0.25651506 0.28815508
0.05756614 -0.09217371 -0.047069173 -0.074718796 -0.16294113 -0.08151304 -0.113151625 -0.34519926
-0.07298977 -0.24658695 -0.015581928 -0.094074994 -0.108800195 -0.048867874 -0.06488973 -0.065002106
-0.06756816 -0.15606147 -0.29013318 -0.2318097 0.05774596 -0.111650765 -0.058704823 -0.13601086
0.057742782 -0.1559839 0.027429933 -0.13537826 0.014004973 -0.09959312 -0.036307648 -0.09708605
-0.086843066 -0.06589382 0.08760362 -0.041337673 -0.047402706 -0.1083445 -0.1526276 -0.17516434
0.10377585 -0.3157209 0.09108239 -0.09216866 -0.015996328 -0.17176482 -0.034171198 -0.2171029
-0.059001654 -0.12017209 -0.17729908 -0.039409764 -0.03293737 -0.1738185 -0.10506118 -0.16054964
0.02077608 -0.20357417 0.07036726 -0.077323 -0.021981811 -0.13160747 -0.26241603 -0.23261252
-0.018443534 -0.1342296 -0.114671275 -0.010601249 -0.07472672 -0.18557362 0.013131567 -0.1444834
-0.025705134 -0.1791959 0.06746919 -0.22083567 -0.00898346 -0.14521863 -0.10912423 -0.11420034
-0.03987787 -0.17431913 -0.22495873 -0.103683315 0.04387346 -0.120716825 -0.1275526 -0.16761248
0.06397835 -0.15602052 0.15003493 -0.20093651 0.05901607 -0.23001018 -0.02874048 -0.10793436
0.04118328 -0.19216011 -0.011482255 -0.18900284 0.0787783 -0.18043591 -0.09063517 -0.23573264
0.040937915 -0.27225837 0.14836553 -0.045005627 -0.03415566 -0.08768526 -0.19702987 -0.16776049
-0.12175319 -0.10235728 -0.119925335 0.027700307 0.036674302 -0.13055743 -0.14341368 -0.16620284
0.07364469 -0.23029093 0.113405004 -0.033124905 -0.18454269 -0.09548449 -0.18789528 -0.07108977

bias f4 [32]
00000000: 5bb1 e33d 0c84 a43e 0f45 9e3c 5b41 933c
00000010: a698 723d b315 b03e a143 ad3d 1c21 9a3d
00000020: f52c 843e 3e73 bf3c 5a57 8d3e 88f0 8c3d
00000030: 06db f93e d9ce e33e 43ff 7f3e 728b 763e
00000040: 14c4 2d3e b697 843d 857c 033e 922a 243e
00000050: 5740 833e 9581 733e db44 513e ed52 303e
00000060: 767d 8c3e d391 0c3e 92f7 a03e 576b 683e
00000070: 689e 1d3e 9148 373e 2874 bb3e 2afe d33d
0.11117812 0.32131994 0.01932004 0.0179755 0.05922761 0.34391555 0.08460165 0.07525846
0.2581555 0.023370381 0.27605706 0.06881815 0.48799914 0.4449375 0.24999718 0.24076632
0.16969329 0.06474249 0.12840469 0.16031864 0.25635025 0.237799 0.20436423 0.17219134
0.2743947 0.13727503 0.3143888 0.22697197 0.15392458 0.17898776 0.36612058 0.10351212

weight f4 [1, 32]
00000000: 6784 c4be e0ac e63e 6ddb b5be b53f c6be
00000010: b684 adbe 8ad0 a23e 457a 9dbe ef1f eabe
00000020: 69fb c2be a415 e2be b902 c03e b68d d0be
00000030: de54 a23e 7e12 e33e e7c8 a33e 05e2 e53e
00000040: c4fc 8ebe a8c8 72be e25b abbe 0e47 bdbe
00000050: c2ec b23e 25f2 95be 1dea b13e f5d8 be3e
00000060: b87e 8d3e 7e32 de3e 4362 b23e b7ec 88be
00000070: 761e c03e 23fe dd3e c7a5 b13e a617 babe
-0.38382265 0.45053768 -0.3551897 -0.3872048 -0.33890313 0.31799728 -0.30757347 -0.45727488
-0.38082436 -0.44157135 0.37502077 -0.40733117 0.31705374 0.44350046 0.31989214 0.44899002
-0.2792722 -0.23709357 -0.3346854 -0.36968273 0.34946257 -0.29286304 0.34748927 0.372749
0.2763574 0.43397897 0.34840593 -0.267431 0.3752324 0.43357953 0.3469679 -0.36346167
