src/data/rnn.pth (torch, 24463 bytes, 7 tensors)

weight_ih_l0 f4 [64, 60]
0	0xbe725c76	-0.23668084
1	0xbda581b4	-0.080813795
2	0xbe388776	-0.18020424
3	0x3dfa51c0	0.12222624
4	0x3dcd5ec8	0.10027844
5	0x3e4e5906	0.20151147
6	0x3e775672	0.2415407
7	0x3c806be0	0.015676439
8	0x3dfbcd8c	0.12295064
9	0xbc10aac0	-0.0088297725
10	0xbe124c86	-0.14287004
11	0x3e4ad6de	0.19808528
12	0x3ea18fc5	0.31555
13	0xbd7076cd	-0.058707047
14	0x3e4cf98d	0.20017071
15	0x3d6ca9bf	0.05777907
16	0xbd283d5d	-0.041074146
17	0xbe8c87be	-0.27447313
18	0xbc39716f	-0.011318549
19	0x3e921dfe	0.28538507
20	0xbb57dd5a	-0.0032938332
21	0xbe6d16c6	-0.23153219
22	0x3e6925f0	0.22768378
23	0x3d301515	0.042988855
24	0x3c3e2228	0.011604823
25	0x3d74972b	0.059714478
26	0xbd138722	-0.036017545
27	0x3f0d925d	0.5530146
28	0x3ed7f638	0.42180037
29	0x3e1a465e	0.15065905
30	0x3e485f21	0.19567539
31	0x3eb4f069	0.35339668
32	0x3f24a3f8	0.64312696
33	0xbe3bc416	-0.1833652
34	0x3ee3856f	0.4443774
35	0x3e1cc793	0.15310507
36	0x3e4f7283	0.20258527
37	0x3ea6c7e3	0.32574376
38	0xbcd96082	-0.026535276
39	0x3e08c393	0.13355856
40	0x3eaf7781	0.34270862
41	0x3f0f9299	0.56083065
42	0x3e454b25	0.19266947
43	0x3ea62325	0.32448688
44	0x3dd6e2b5	0.1049246
45	0xbcdd083b	-0.026981464
46	0x3e2afb44	0.16697413
47	0x3e1dfe42	0.15429023
48	0x3e25faa1	0.16208889
49	0x3d10059d	0.035161603
50	0xbc1d6380	-0.009606242
51	0x3ec63bcb	0.38717493
52	0x3cce4e30	0.025183767
53	0x3e0c581d	0.13705488
54	0x3c950efb	0.01819562
55	0x3dd95436	0.10611765
56	0xbd804b29	-0.06264336
57	0xbdaff048	-0.08590752
58	0x3e3e2607	0.18569194
59	0x3edc2be9	0.4300225
60	0xbc10ecc0	-0.008845508
61	0xbe0ae996	-0.13565668
62	0xbe36a036	-0.17834553
63	0x3df6a28c	0.12042722
64	0xbe0306ca	-0.12795559
65	0x3dbadfa8	0.0912469
66	0x3d5aa430	0.053379238
67	0xbe756f12	-0.23968151
68	0xbe651da0	-0.22374582
69	0x3dce5290	0.10074341
70	0x3b2d1c80	0.0026414692
71	0x3e7069f6	0.23477921
72	0x3e9f8520	0.31156254
73	0x3edf6620	0.43632603
74	0x3f324db1	0.696498
75	0x3eeaf616	0.45890874
76	0x3f07e1eb	0.530791
77	0x3f21b5ec	0.63168216
78	0x3f049276	0.5178598
79	0x3f418f66	0.75609434
80	0x3ea26c64	0.3172332
81	0x3edace9d	0.42735758
82	0x3e09cc91	0.13456942
83	0x3eb67dd1	0.35642865
84	0x3edb6a84	0.42854702
85	0x3e4423ab	0.19154231
86	0x3e3d8019	0.18505897
87	0x3ec921db	0.39283642
88	0x3ecdda1b	0.40205464
89	0x3eefcb3e	0.4683475
90	0x3e08e41d	0.13368268
91	0xbd12a08d	-0.035797644
92	0x3e2eb67a	0.17061797
93	0x3eb703ae	0.35744995
94	0x3e3abe4a	0.18236652
95	0x3cfd6614	0.030932464
96	0x3e921112	0.2852865
97	0x3e668ac3	0.22513871
98	0x3ed5f05f	0.4178495
99	0x3e469381	0.19392206
100	0x3eaaa387	0.33327886
101	0x3ede14c4	0.43375218
102	0x3e7df6f4	0.24801236
103	0x3ec17e5a	0.3779171
104	0xbea32863	-0.3186675
105	0x3e46a4ff	0.19398879
106	0xbc4f3a16	-0.012648126
107	0x3da92e0d	0.082607366
108	0x3e240845	0.1601878
109	0xbeb82f15	-0.3597342
110	0xbe6e72ae	-0.23285934
111	0xbda28fd9	-0.07937593
112	0x3e5e90d0	0.21734929
113	0xbd526ff1	-0.051376287
114	0xbdfcffd3	-0.12353482
115	0xbdbc72c6	-0.09201579
116	0x3e934ff5	0.2877194
117	0x3e6fcbd2	0.23417595
118	0xbad3ba87	-0.0016153612
119	0x3f1003d0	0.5625582
120	0x3df6a000	0.12042236
121	0x3e3b5362	0.18293527
122	0x3e470a54	0.19437534
123	0x3dd10d30	0.102075934
124	0xbe67a510	-0.2262156
125	0xbe25690a	-0.1615335
126	0x38308000	4.208088e-05
127	0xbda49e84	-0.08038047
128	0xbd8f3618	-0.069927394
129	0x3d207e18	0.039182752
130	0x3dbce184	0.09222701
131	0xbd8c7080	-0.06857395
132	0x3e6e3016	0.23260531
133	0x3eeb6a62	0.459796
134	0x3d191331	0.037371818
135	0xbe008af2	-0.12553003
136	0x3e4d323c	0.20038694
137	0x3e0f5620	0.13997698
138	0x3e4e445d	0.20143266
139	0x3e87436f	0.26418635
140	0xbe00c9b6	-0.12576947
141	0xbe9d4777	-0.30718586
142	0x3dd47c72	0.103752986
143	0xbe90f555	-0.28312173
144	0x3e030df2	0.12798288
145	0x3dc6c9b6	0.09706442
146	0x3e8c0e34	0.27354586
147	0x3edd3508	0.43204522
148	0x3ed5cc2d	0.41757336
149	0x3e9cf8a3	0.30658445
150	0x3dc9bc29	0.09850342
151	0x3e4b60a7	0.19861089
152	0x3f15b279	0.5847545
153	0x3d8261fe	0.06366347
154	0x3ed8dc3c	0.42355525
155	0x3e70a741	0.23501302
156	0xbda2463d	-0.07923553
157	0x3ec2d5c7	0.38053724
158	0x3d508fe0	0.05091846
159	0x3e0573d8	0.13032472
160	0x3f4099a8	0.7523446
161	0x3f060072	0.5234443
162	0x3f1abb5f	0.60442156
163	0x3e6ae1f2	0.22937754
164	0x3f01ec4e	0.507512
165	0x3e845544	0.25846303
166	0x3eafac46	0.34311122
167	0x3db9ad67	0.09066277
168	0x3e07f879	0.13278379
169	0x3ed8e1ed	0.42359868
170	0xbd44bc58	-0.04803118
171	0x3ebc33b9	0.3675821
172	0x3e692224	0.2276693
173	0xbd897d8e	-0.06713401
174	0x3e990dd5	0.29893366
175	0x3b6d1db4	0.0036181035
176	0xbdbf119b	-0.0932953
177	0x3e7b466e	0.24538586
178	0x3e9cdaef	0.30635783
179	0x3f0fae00	0.5612488
180	0xbe3ba572	-0.18324831
181	0x3e262336	0.1622437
182	0xbe521b90	-0.20518327
183	0xbd0dbae0	-0.034602046
184	0xbe7c152a	-0.24617448
185	0xbe1b4aaa	-0.15165201
186	0x3cdbb5b0	0.026820034
187	0xbdce63c8	-0.100776255
188	0xbe022284	-0.12708479
189	0x3e0c5638	0.13704765
190	0x3dec1a98	0.1152851
191	0xbe2aca6e	-0.16678783
192	0xbded11d0	-0.11575663
193	0x3eaab4af	0.33340976
194	0x3ecb9c9e	0.39767927
195	0x3f036eec	0.5134113
196	0x3f238686	0.6387714
197	0x3eb0b440	0.3451252
198	0x3eb5ef17	0.35533974
199	0x3e80c670	0.25151396
200	0x3ec08822	0.3760386
201	0x3e96b49f	0.29434678
202	0x3e8bda4a	0.2731498
203	0x3ed3fbc9	0.41403034
204	0x3e9622d6	0.29323453
205	0x3ee44b27	0.44588587
206	0x3df3e0f2	0.11908139
207	0x3e3dfd6d	0.18553706
208	0x3b5064b0	0.0031798296
209	0x3dd5281f	0.10408043
210	0x3d844648	0.064587176
211	0xbe1d019b	-0.15332644
212	0xbe5ebf2c	-0.21752614
213	0x3e78def0	0.24303794
214	0x3de457a6	0.1114953
215	0x3ba6ab53	0.0050863414
216	0x3ea0bc8b	0.31393847
217	0x3de79741	0.11308146
218	0x3eb9e83e	0.3631
219	0xbb1b2c9c	-0.0023677712
220	0xbf004e2a	-0.5011927
221	0xbdf4f991	-0.119616635
222	0xbdbcd0d1	-0.09219516
223	0xbe6aa4c7	-0.2291442
224	0xbd4eaf67	-0.050460245
225	0xbd4dab68	-0.050212294
226	0xbad354f2	-0.0016123338
227	0xbe1af83c	-0.15133756
228	0xbe9f166d	-0.31071797
229	0xbe8fe881	-0.28107074
230	0x3deb0124	0.11474827
231	0xbe39c2bf	-0.18140696
232	0xbd2427e0	-0.04007709
233	0xbe223ba0	-0.15843058
234	0xbe2f6080	-0.17126656
235	0x3d698111	0.057007853
236	0xbe758232	-0.23975447
237	0x3e200cac	0.15629834
238	0xbdfcf6e2	-0.12351777
239	0xbe5fefc2	-0.21868804
240	0xbe1d8b64	-0.15385205
241	0xbc560e20	-0.013064891
242	0xbe15cfbe	-0.14630029
243	0x397d5000	0.00024157763
244	0x3e520694	0.20510322
245	0xbe5459a4	-0.2073732
246	0x3e21ac34	0.15788347
247	0x3e128c62	0.14311364
248	0x3d8d45fc	0.06898114
249	0xbe66c6b2	-0.22536734
250	0x3e790a3a	0.24320307
251	0x3e2a6a04	0.16642004
252	0x3eac0788	0.33599496
253	0x3f2f0a9f	0.6837558
254	0x3f1ccee5	0.61253196
255	0x3f020a32	0.50796807

weight_hh_l0 f4 [64, 16]
0	0xbed0bf95	-0.40771165
1	0x3deba128	0.115053475
2	0xbf15f322	-0.58574116
3	0xbe840772	-0.2578693
4	0x3ebfca88	0.37459207
5	0x3eb329de	0.3499288
6	0x3f1dac7c	0.61591315
7	0x3f26eeec	0.65208316
8	0x3f47b673	0.7801277
9	0x3ed8d469	0.42349556
10	0x3e44eb16	0.19230303
11	0x3e360df0	0.17778754
12	0xbdd7d678	-0.105389535
13	0xbed08bc9	-0.40731648
14	0xbee88e18	-0.4542091
15	0x3f11f6a7	0.57016987
16	0xbf086e8b	-0.53293675
17	0xbe3e1ff8	-0.18566883
18	0xbebf56cc	-0.37370908
19	0xbecda9b5	-0.4016854
20	0x3dc5dddd	0.09661458
21	0x3f03164d	0.51205903
22	0x3ee37cfe	0.444313
23	0x3f17b819	0.59265286
24	0x3ed3d0ce	0.41370243
25	0x3ed21d2c	0.4103788
26	0x3e8348c4	0.25641453
27	0x3cd19985	0.0255859
28	0xbe32ebaa	-0.17472711
29	0xbf25832d	-0.64653283
30	0xbe87ed9c	-0.2654847
31	0x3efaa1b3	0.48951492
32	0xbe7c2446	-0.24623212
33	0xbdb74585	-0.08948807
34	0xbe4ebe24	-0.2018972
35	0xbe54f1c8	-0.20795357
36	0x3e561843	0.20907693
37	0x3ed23be9	0.41061333
38	0x3ef43543	0.47696885
39	0x3f4da26d	0.8032597
40	0x3ed2eb15	0.41194978
41	0x3f561d6a	0.8363863
42	0x3d93d4b8	0.07218307
43	0x3dcf8525	0.10132817
44	0xbc682c8b	-0.014170776
45	0xbe615d32	-0.22008207
46	0xbe85b0bf	-0.2611141
47	0x3ebdb782	0.37054068
48	0xbe245f53	-0.16051988
49	0xbcc59e53	-0.024123346
50	0xbdb04527	-0.0860694
51	0xbdc2c0fd	-0.09509466
52	0x3e01f37b	0.12690537
53	0x3ea16db3	0.31529006
54	0xbcf0df2d	-0.029403294
55	0xbd3fc7b7	-0.046821322
56	0x3e67799f	0.22604989
57	0x3e95417b	0.2915152
58	0xbd7d3df6	-0.06182667
59	0x3e8a960f	0.2706761
60	0x3da34da9	0.07973797
61	0xbe2175a7	-0.15767537
62	0x3e2d5753	0.16927843
63	0x3bff9cf9	0.007800695
64	0xbf07f464	-0.53107285
65	0xbe09b4a9	-0.13447823
66	0xbf02f3ff	-0.5115356
67	0xbe6a22a6	-0.2286478
68	0x3e7349ac	0.23758572
69	0x3f281866	0.6566223
70	0x3ed8fd91	0.42380956
71	0x3ee69ffa	0.45043927
72	0x3f0ea8a1	0.5572606
73	0x3f2e5460	0.68097496
74	0xbdad7359	-0.084692664
75	0x3e92f717	0.2870414
76	0xbcb3c283	-0.021943336
77	0xbe4edfe1	-0.2020259
78	0xbf1e61a3	-0.6186773
79	0x3ecf49a8	0.40485883
80	0x3e9b0014	0.30273497
81	0x3d723fda	0.059142925
82	0x3cce4c50	0.025182873
83	0x3e899c48	0.26877046
84	0x3f049b56	0.51799524
85	0x3ed62081	0.41821674
86	0x3f1141e0	0.5674114
87	0x3eeca743	0.4622136
88	0x3f06dee0	0.5268383
89	0x3e57039a	0.20997468
90	0x3e56dc4e	0.20982477
91	0x3f061a52	0.5238391
92	0x3e6f3a84	0.23362166
93	0x3c29704a	0.010341713
94	0xbe24bca6	-0.16087589
95	0x3e8f12b5	0.2794396
96	0xbefca555	-0.49344888
97	0xbe4e9343	-0.20173363
98	0xbefe537d	-0.49673072
99	0xbf116d4d	-0.56807405
100	0x3d2520db	0.040314537
101	0x3f337ab5	0.7010911
102	0x3f09bd49	0.5380445
103	0x3f1215a4	0.5706427
104	0x3eafe7d2	0.34356552
105	0x3ed94844	0.42437947
106	0x3deb2795	0.11482159
107	0x3e83e20d	0.257584
108	0x3e468c5b	0.19389479
109	0xbf072092	-0.52784073
110	0xbe9f7ead	-0.31151333
111	0x3e64d299	0.22345962
112	0xbd931f53	-0.07183709
113	0xbd4695e0	-0.048482776
114	0xbdcfdb71	-0.10149277
115	0xbdd0f2fd	-0.10202596
116	0x3e5ec32e	0.21754143
117	0x3ea9a573	0.3313404
118	0xbc89715c	-0.016777687
119	0xbd961644	-0.073284656
120	0x3eb00e81	0.34386066
121	0x3eaa30b3	0.3324028
122	0x3d904cb0	0.07045877
123	0x3e328390	0.17433
124	0xbe47184c	-0.19442862
125	0xbe787281	-0.2426243
126	0xbe995843	-0.2995015
127	0x3d002557	0.03128561
128	0xbe2b6ce7	-0.16740762
129	0xbe223eef	-0.1584432
130	0xbe821961	-0.25409988
131	0x3e5b60b7	0.21423613
132	0x3e602491	0.21888949
133	0x3ee5625a	0.448016
134	0x3ef93931	0.48676446
135	0x3e08fb66	0.13377151
136	0x3c57bdab	0.013167779
137	0x3e9b795b	0.30366024
138	0x3da2afec	0.07943711
139	0x3ee8d0d1	0.45471814
140	0x3e6a66c3	0.22890763
141	0xbe9bd5d7	-0.30436584
142	0xbe6646c4	-0.22487932
143	0x3ea078db	0.31342205
144	0xbcf98aaa	-0.030461628
145	0xbcbb25ef	-0.022845237
146	0xbd374c1e	-0.044750325
147	0xbe27835a	-0.163587
148	0x3ea40041	0.32031444
149	0x3edd6182	0.43238455
150	0x3da7c711	0.08192266
151	0x3ea94115	0.33057466
152	0x3e8b51e6	0.2721092
153	0x3eaa554e	0.33268207
154	0x3e515aeb	0.20444839
155	0x3dbaf42d	0.09128604
156	0x3e586371	0.21131684
157	0x3dabd4ec	0.08390221
158	0xbe975d8d	-0.2956356
159	0x3da906ef	0.082532756
160	0xbecd9330	-0.40151358
161	0xbdbf6ebe	-0.09347294
162	0xbeb0ce83	-0.34532556
163	0xbf06f2ae	-0.5271405
164	0x3e275899	0.16342391
165	0x3ef0835e	0.46975225
166	0x3f21ca99	0.63199764
167	0x3f3d7890	0.7401209
168	0x3edec24e	0.43507618
169	0x3f1dd429	0.61651856
170	0x3e74bb97	0.23899685
171	0x3f08dc88	0.53461504
172	0x3d437a39	0.047723982
173	0xbebf35b8	-0.37345672
174	0xbf347da2	-0.705042
175	0x3f2ef077	0.6833567
176	0xbee146e6	-0.43999404
177	0xbe12dfca	-0.14343181
178	0xbed26bae	-0.41097778
179	0xbeeb0add	-0.45906726
180	0x3e36cf2b	0.17852466
181	0x3f3c7233	0.73611754
182	0x3f0cdc78	0.5502391
183	0x3f285f5f	0.65770525
184	0x3f3d41f3	0.73928756
185	0x3f421590	0.7581415
186	0x3da69fb5	0.081359304
187	0x3f013636	0.50473344
188	0xbd9b1682	-0.075726524
189	0xbf1ee71c	-0.62071395
190	0xbf0aeeba	-0.5427052
191	0x3ef2046f	0.47269008
192	0xbf12ea13	-0.5738842
193	0xbe2db4ef	-0.16963552
194	0xbf11f808	-0.5701909
195	0xbe49d0ff	-0.19708632
196	0x3e71e7d1	0.23623587
197	0x3f414d8f	0.7550897
198	0x3ef81709	0.48455074
199	0x3f1705a9	0.5899301
200	0x3ee78ff3	0.45227012
201	0x3f3ed3ef	0.74542135
202	0xbe3532e8	-0.176952
203	0x3e88a361	0.26687148
204	0xbda866ba	-0.082227185
205	0xbf12b79a	-0.57311404
206	0xbee20c25	-0.4414989
207	0x3eda2c00	0.42611694
208	0xbe5b6ba0	-0.21427774
209	0x3eaa1c00	0.33224487
210	0x3c57362b	0.013135473
211	0x3e3b0cf6	0.18266663
212	0x3e379996	0.17929682
213	0x3ebc4558	0.36771655
214	0x3e0f40ec	0.1398961
215	0x3e35a46e	0.17738506
216	0x3e316bd1	0.17326285
217	0x3e353636	0.17696461
218	0x3e1a571f	0.15072297
219	0x3ed0253e	0.40653414
220	0xbd0a9f84	-0.033843532
221	0xbe4123f2	-0.18861368
222	0x3d70d060	0.058792472
223	0x3d00616d	0.031342912
224	0xbe14c974	-0.14529973
225	0xbda68553	-0.08130898
226	0x3c5ae804	0.013360981
227	0xbe3f74ea	-0.18696943
228	0x3d77827e	0.06042718
229	0x3ec53a2a	0.38520938
230	0x3eef5f17	0.46752235
231	0x3ec6b4e6	0.3880989
232	0x3e1064ec	0.14100999
233	0x3ed6c496	0.41946858
234	0x3d524403	0.051334392
235	0x3f038b47	0.51384395
236	0x3e6dd526	0.23225841
237	0xbe5b20a6	-0.21399173
238	0xbd6f88fd	-0.05848025
239	0x3ed0d5d2	0.40788132
240	0xbf1bd197	-0.60866684
241	0xbc797a94	-0.015226979
242	0xbf042c21	-0.51629835
243	0xbec3a907	-0.38214895
244	0x3e19b58a	0.15010658
245	0x3e980a7c	0.296955
246	0x3eef19d3	0.4669939
247	0x3f32889b	0.69739693
248	0x3e939c78	0.28830314
249	0x3f2b3089	0.66870934
250	0x3e124559	0.14284267
251	0x3d899689	0.067181654
252	0x3d299965	0.041406054
253	0xbec1d384	-0.37856686
254	0xbe71d4b3	-0.23616295
255	0x3f0d33e5	0.5515731

bias_ih_l0 f4 [64]
0	0x3ea49c50	0.32150507
1	0x3ea2213f	0.3166599
2	0x3eb569b0	0.35432196
3	0x3e607383	0.21919064
4	0x3f12b476	0.5730661
5	0x3e6cee04	0.23137671
6	0x3ec1d959	0.37861136
7	0x3e0a2b80	0.13493156
8	0x3e4284a7	0.18995915
9	0x3d9cba17	0.07652681
10	0x3f2d5412	0.67706406
11	0x3f3f94db	0.7483651
12	0x3f30d1b6	0.69069993
13	0x3e854207	0.26026937
14	0x3ea0ca0b	0.31404147
15	0x3f245bed	0.6420277
16	0xbb11a655	-0.0022224386
17	0x3da0c57f	0.078501694
18	0x3dc4241f	0.09577202
19	0xbda37898	-0.07981986
20	0xbde9a13e	-0.11407708
21	0x3ed6fa91	0.41988042
22	0xbb877105	-0.004133346
23	0x3e44db13	0.19224195
24	0x3d84d8df	0.064866774
25	0x3e9e9810	0.3097539
26	0x3d98e561	0.074656256
27	0xbeb1b889	-0.34711102
28	0xbeb6c88b	-0.35699877
29	0x3e15e2cc	0.14637297
30	0xbdbe4ef3	-0.09292402
31	0xbe86e552	-0.26346833
32	0xbde4357e	-0.11143015
33	0xbe7e1fce	-0.2481682
34	0x3d2be3c1	0.04196525
35	0xbe8758f1	-0.26435044
36	0xbe341cb3	-0.17589073
37	0x3eccbc24	0.3998729
38	0x3e81fb63	0.25387105
39	0xbda86983	-0.0822325
40	0x3dd40516	0.103525326
41	0x3ec4cfdc	0.38439834
42	0x3e4406f2	0.19143274
43	0x3e03fc3b	0.12889187
44	0x3db83848	0.0899511
45	0xbdcba892	-0.099442616
46	0xbe431f1d	-0.19054838
47	0x3db04bc5	0.08608202
48	0x3f1aa407	0.60406536
49	0x3f01a813	0.50647086
50	0x3ee43418	0.44570994
51	0x3d16796b	0.036736887
52	0x3eb6cc9b	0.35702977
53	0x3ea20d26	0.31650656
54	0x3f199ac9	0.6000181
55	0x3db2da45	0.08733038
56	0x3e455065	0.1926895
57	0x3e36945b	0.1783003
58	0x3f2e92eb	0.6819293
59	0x3ecaa643	0.39579973
60	0x3ebb5454	0.36587775
61	0x3edee91d	0.43537226
62	0x3ce903f9	0.028444277
63	0x3f069431	0.5256987

bias_hh_l0 f4 [64]
0	0x3e99a677	0.30009815
1	0x3f033d09	0.5126501
2	0x3f1a8e12	0.6037303
3	0x3eda6fcc	0.4266342
4	0x3f4926f9	0.7857509
5	0x3eccba3e	0.39985842
6	0x3ecf3f1d	0.4047784
7	0x3eb3e780	0.35137558
8	0x3d7ddcc0	0.0619781
9	0x3e9f0169	0.31055763
10	0x3f4d506d	0.80200845
11	0x3f04ee98	0.51926565
12	0x3e897594	0.26847517
13	0x3e91a993	0.28449687
14	0x3e760402	0.24024966
15	0x3f39532b	0.7239253
16	0xbcff72a3	-0.031182593
17	0x3dd87ceb	0.10570701
18	0xbddf24f3	-0.108957194
19	0x3ea50b36	0.32235116
20	0x3daad55f	0.083414786
21	0x3e81ac84	0.2532693
22	0xbcb42c73	-0.021993851
23	0x3c473b26	0.012160098
24	0x3ec802ff	0.39064786
25	0x3ec6bf0a	0.38817626
26	0xbeb7b87f	-0.35882947
27	0xbc9ef58d	-0.019404197
28	0x3d11923b	0.035539847
29	0x3cce688e	0.02519634
30	0xbdd64212	-0.10461821
31	0x3d8f33ae	0.06992279
32	0xbe715634	-0.2356804
33	0xbdcf1fce	-0.10113488
34	0xbe60d59d	-0.21956487
35	0xbd8dc05f	-0.069214575
36	0x3d8ca733	0.06867828
37	0x3ec656ea	0.38738185
38	0xbd8e2dfc	-0.069423646
39	0x3e8a606c	0.2702669
40	0x3e704ae9	0.23466076
41	0x3daad51c	0.08341429
42	0xbe1f6227	-0.15564786
43	0xbc004f96	-0.007831475
44	0xbe17720b	-0.14789598
45	0xbed4be16	-0.41551274
46	0xbdfca612	-0.12336363
47	0xbe03f192	-0.1288512
48	0x3f10efaa	0.566157
49	0x3eb64d64	0.3560592
50	0x3ebb3038	0.36560225
51	0x3b874654	0.004128257
52	0x3f2f2820	0.684206
53	0x3e25f367	0.16206132
54	0x3e53203e	0.20617768
55	0x3db9d97f	0.09074687
56	0xbcdb8512	-0.026796851
57	0x3e9c6d92	0.30552346
58	0x3ec7d3e8	0.3902886
59	0x3eea4c79	0.4576147
60	0x3e984230	0.29737997
61	0x3e066342	0.13123801
62	0x3eb5f4ac	0.35538232
63	0x3ed3be65	0.41356197

weight f4 [16, 16]
0	0x3e77b0e3	0.2418857
1	0xbf524992	-0.8214351
2	0x3e92ef4c	0.28698194
3	0xbec35781	-0.38152698
4	0xbf6b37b4	-0.9188187
5	0xbe16e121	-0.14734317
6	0x3f379789	0.717156
7	0x3e7289a0	0.23685312
8	0x3ef52c9f	0.47885606
9	0x3db1e1d0	0.086856484
10	0xbf6515c1	-0.8948632
11	0x3f4342cf	0.76273817
12	0xbf1d9804	-0.6156008
13	0xbe2fb16d	-0.17157526
14	0x3da704b5	0.08155195
15	0x3f38ac45	0.7213786
16	0xbcb19e34	-0.021681882
17	0xbd8cb26f	-0.06869971
18	0x3e46456e	0.19362423
19	0xbe1dacbe	-0.15397927
20	0x3e820a92	0.2539869
21	0xbb9bd4e4	-0.004755603
22	0xbdf2b2be	-0.118504986
23	0xbe3e2e63	-0.18572383
24	0xbe3dfa62	-0.18552545
25	0xbe831fb4	-0.25610125
26	0x3dd9118e	0.105990514
27	0xbe1ff87c	-0.15622133
28	0xbe36729d	-0.17817159
29	0xbe17c22c	-0.14820164
30	0xbcda8aaf	-0.026677458
31	0x3e444c07	0.19169627
32	0x3e204840	0.15652561
33	0xbf54d907	-0.8314366
34	0x3e59df56	0.21276602
35	0xbe7a1ffe	-0.24426267
36	0xbf66f556	-0.902181
37	0x3e580798	0.21096647
38	0x3f3ce18d	0.73781663
39	0x3f0c1580	0.54720306
40	0x3ed48418	0.4150703
41	0x3e8ef652	0.27922302
42	0xbf51212d	-0.8169125
43	0x3f595848	0.8490033
44	0xbf64f0c0	-0.89429855
45	0x3da4a83b	0.080399
46	0x3d0cb3d1	0.034351174
47	0x3f5aa123	0.85402125
48	0xbe0f9f5f	-0.14025639
49	0x3df522be	0.11969517
50	0xbe051a71	-0.12998368
51	0x3df0a322	0.11749865
52	0x3bfa79d7	0.007643919
53	0x3db05772	0.08610429
54	0x3e5a4fba	0.21319476
55	0xbe74b141	-0.23895742
56	0x3cf698a4	0.030102082
57	0xbe1db569	-0.15401234
58	0x39124789	0.00013950294
59	0x3e080ee7	0.13286935
60	0x3e4d5b1f	0.20054291
61	0x3d805aac	0.06267294
62	0x3d0302ff	0.03198528
63	0x3df847ad	0.12123046
64	0x3ef6e8d7	0.48224518
65	0xbf4a637d	-0.7905806
66	0x3ee2ca19	0.44294813
67	0xbedb64c9	-0.4285033
68	0xbf0f6bfe	-0.5602416
69	0x3e2d26f8	0.16909397
70	0x3f1c9874	0.61170125
71	0x3ee4f26d	0.44716206
72	0x3ed23a44	0.41060078
73	0x3edf026a	0.4355653
74	0xbf5c8b7a	-0.86150324
75	0x3ef52ff3	0.47888145
76	0xbf12029a	-0.5703522
77	0xbeb52716	-0.35381383
78	0x3e36aff4	0.17840558
79	0x3f4e3a30	0.8055754
80	0x3e02e692	0.12783268
81	0x3d32f740	0.043692827
82	0x3db41318	0.08792704
83	0x3e3c7d6e	0.18407223
84	0xbd9a1980	-0.07524395
85	0xbe5ca200	-0.21546173
86	0x3be5ad40	0.0070091784
87	0xbe50e7a4	-0.20400864
88	0xbe17061c	-0.14748424
89	0xbda98f10	-0.0827924
90	0x3dec6ab8	0.115437925
91	0xbe65510a	-0.22394195
92	0xbdda8af8	-0.106710374
93	0x3e154904	0.14578635
94	0x3cc9fe60	0.024657428
95	0x3e19eb92	0.15031269
96	0xbe7ce7f5	-0.2469786
97	0x3f0cd56b	0.5501315
98	0xbeaf4832	-0.34234768
99	0x3e2d1141	0.16901113
100	0x3f3e600f	0.74365324
101	0x3ea300e0	0.31836605
102	0xbe80f725	-0.25188556
103	0xbe93a231	-0.2883468
104	0x3e0abe27	0.135491
105	0x3e28452c	0.16432637
106	0x3f16d72b	0.5892207
107	0xbf5da769	-0.8658357
108	0x3f40664e	0.75156105
109	0xbde28060	-0.11059642
110	0xbef3b9fb	-0.4760283
111	0xbf259722	-0.64683735
112	0xbf1f3efe	-0.62205493
113	0x3ecb3647	0.39689848
114	0xbe7d844f	-0.24757503
115	0x3dd18966	0.10231285
116	0x3f2fc330	0.6865721
117	0x3d8ea3c3	0.06964829
118	0xbf002a5f	-0.50064653
119	0xbd932eb7	-0.071866445
120	0x3e739f6b	0.23791282
121	0xbd849d30	-0.06475294
122	0x3efe38c3	0.4965268
123	0xbf775326	-0.9661125
124	0x3f32a62b	0.697848
125	0xbe01c9d6	-0.1267465
126	0xbec5af3f	-0.38610265
127	0xbf3a6760	-0.7281399
128	0xbf195884	-0.5990069
129	0x3f070f1c	0.5275743
130	0xbf23093e	-0.6368598
131	0xbdd671b8	-0.10470909
132	0x3f281138	0.65651274
133	0x3ea9493b	0.33063683
134	0xbef7fd3c	-0.4843539
135	0xbebe81ee	-0.37208503
136	0xbe2db403	-0.169632
137	0x3d915edc	0.07098171
138	0x3f068592	0.5254756
139	0xbf4ee8cb	-0.80823964
140	0x3f52630f	0.821824
141	0xbe176453	-0.14784364
142	0xbee9ab4c	-0.45638502
143	0xbeb34946	-0.3501684
144	0xbf2c166e	-0.67221725
145	0x3f3df165	0.74196464
146	0xbedb4c03	-0.4283143
147	0xbccc8920	-0.02496773
148	0x3f584cb8	0.84492064
149	0x3e16ba64	0.1471954
150	0xbf2fd694	-0.68686795
151	0x3d35e553	0.044408154
152	0xbc6b1e00	-0.014350414
153	0x3e3c1fd2	0.18371513
154	0x3f9ac89e	1.2092474
155	0xbf6e5f5e	-0.9311427
156	0x3f40d6cd	0.7532776
157	0xbda316b0	-0.07963312
158	0xbed6880c	-0.4190067
159	0xbf4be574	-0.7964699
160	0x3f1fef02	0.6247407
161	0xbf4fe041	-0.8120156
162	0x3eb8bed4	0.3608309
163	0xbd878f2e	-0.06619106
164	0xbf2c0c3f	-0.67206186
165	0x3c8178a0	0.015804589
166	0x3f042945	0.5162547
167	0x3ee2d88f	0.44305846
168	0x3d926395	0.071479
169	0x3ef09455	0.46988168
170	0xbf4ed79e	-0.80797756
171	0x3f8af29d	1.085529
172	0xbf3d76ab	-0.740092
173	0xbe8a6d50	-0.27036524
174	0x3c1c1880	0.009527326
175	0x3f767516	0.9627241
176	0x3e16feb6	0.14745602
177	0xbe6da0fa	-0.23205939
178	0xbdf8fb04	-0.121572524
179	0x3e20f4a4	0.15718323
180	0xbe03ef60	-0.12884283
181	0xbdb65fd4	-0.089049965
182	0xbe2dd3f2	-0.16975382
183	0xbe3503f0	-0.17677283
184	0x3ba5c8c0	0.0050593317
185	0x3e750b3a	0.23930064
186	0x3d9f21f0	0.07770145
187	0x3e2f5e0a	0.17125717
188	0x3e5e6c82	0.2172108
189	0xbe4c2976	-0.19937691
190	0x3e63583a	0.22201625
191	0xbd0b4c60	-0.034008384
192	0x3ee557d0	0.44793558
193	0xbf83fdf1	-1.0311872
194	0x3ef29104	0.47376263
195	0xbe5f703e	-0.21820161
196	0xbf52ef3e	-0.82396305
197	0x3e69c10b	0.22827546
198	0x3f54859e	0.83016384
199	0x3ec8f273	0.39247474
200	0x3e2a69d3	0.16641931
201	0x3ed47b1c	0.41500175
202	0xbf618531	-0.8809386
203	0x3f714d3c	0.94258475
204	0xbf1cec28	-0.61297846
205	0xbe5df494	-0.2167533
206	0x3de850f4	0.113435656
207	0x3f3f20aa	0.74659216
208	0xbd68454f	-0.056706723
209	0x3e23bbda	0.15989628
210	0x3d5cdd8d	0.053922225
211	0xbdd248bf	-0.102677815
212	0x3d8bac90	0.06820023
213	0xbdef9e4e	-0.11700116
214	0x3e0b4a6f	0.13602613
215	0x3de3537d	0.110999085
216	0xbdf676a4	-0.12034348
217	0xbd5a207d	-0.05325364
218	0x3d14ff06	0.03637602
219	0xbd880277	-0.06641095
220	0x3d7eebda	0.062236644
221	0xbe014c0f	-0.1262667
222	0x3e8e2a8f	0.27766845
223	0xbe6ef281	-0.23334695
224	0xbf07d29c	-0.5305574
225	0x3f1a8266	0.6035522
226	0xbf58975a	-0.84605944
227	0xbcc55e0b	-0.024092695
228	0x3f50c2c3	0.8154718
229	0x3ea3b8af	0.3197684
230	0xbf3830ef	-0.71949667
231	0x3dae18fc	0.08500859
232	0xbcba75c3	-0.022761231
233	0x3e518cb0	0.20463824
234	0x3f93a43a	1.1534493
235	0xbf8fe6ba	-1.1242287
236	0x3f8e360c	1.1110244
237	0xbe0f729a	-0.14008561
238	0xbdd00a77	-0.10158246
239	0xbf4ef812	-0.80847275
240	0xbf2e7202	-0.6814271
241	0x3f5ae591	0.8550654
242	0xbf2cad92	-0.6745235
243	0xbe0e6be8	-0.1390835
244	0x3f335620	0.7005329
245	0x3ef00ed8	0.46886325
246	0xbf0f8117	-0.5605635
247	0xbd05871a	-0.032599546
248	0x3d2f2680	0.042761326
249	0xbd03818d	-0.03210597
250	0x3f74ec92	0.9567348
251	0xbf128cd8	-0.5724616
252	0x3f3ed4d3	0.74543494
253	0x3cff80e5	0.031189391
254	0xbe0e8bc6	-0.13920507
255	0xbea8b706	-0.32952136

bias f4 [16]
0	0x3e93f179	0.28895167
1	0x3d0d6cfb	0.03452776
2	0xbd879120	-0.06619477
3	0xbe592665	-0.21206053
4	0x3e801c83	0.25021753
5	0xbbecc640	-0.0072257817
6	0x3d276586	0.040868305
7	0x3e9432e7	0.28945085
8	0x3d3b971f	0.045798417
9	0x3e604a90	0.21903443
10	0x3de0e3c7	0.10980945
11	0xbe2c7fd4	-0.16845638
12	0x3e295adb	0.16538565
13	0x3dac3d3d	0.08410118
14	0x3e2fc4c2	0.17164901
15	0x3c34b0f3	0.011028516

weight f4 [1, 16]
0	0xbf37898b	-0.7169425
1	0x3e5acc6b	0.21367042
2	0xbf2a7ead	-0.6659954
3	0xbe2fa321	-0.17152072
4	0xbf2e3f2a	-0.6806513
5	0xbe01f894	-0.12692481
6	0x3f7079b9	0.93935734
7	0x3f55ec8e	0.8356408
8	0x3f809250	1.0044651
9	0x3f6e0ab7	0.929851
10	0xbf8a438a	-1.0801861
11	0xbe7a988a	-0.24472252
12	0xbf237882	-0.63855755
13	0x3e16dbc6	0.14732274
14	0x3f8c3cd4	1.0956063
15	0x3f6bd55b	0.9212243
